…
max_value, max_counts, n_select
1 471090 30570
get drug features
get gene features
(91710, 1107)
[32819 30570 28321]
train_data shape
(91710, 2131)
(91710,)
num_iter_per_epoch 716
(5650, 6)
get drug features
get gene features
(5650, 1107)
test_data shape
(5650, 2131)
(5650,)
[… 0.         … 0.         1.         0.99804688 0.984375   0.94726562 0.875
 0.75585938 0.578125   0.33007812 0.         0.         0.
 0.         0.         0.         0.         0.         0.
 0.         0.         0.         0.         0.         0.
 0.        ]
loading dataset...
building model...
<bound method MLP.parameters of MLP(
  (fc1): Linear(in_features=2131, out_features=128, bias=True)
  (fc2): Linear(in_features=128, out_features=32, bias=True)
  (fc3): Linear(in_features=32, out_features=3, bias=True)
)>
<bound method MLP.parameters of MLP(
  (fc1): Linear(in_features=2131, out_features=128, bias=True)
  (fc2): Linear(in_features=128, out_features=32, bias=True)
  (fc3): Linear(in_features=32, out_features=3, bias=True)
)>
<bound method MLP.parameters of MLP(
  (fc1): Linear(in_features=2131, out_features=128, bias=True)
  (fc2): Linear(in_features=128, out_features=32, bias=True)
  (fc3): Linear(in_features=32, out_features=3, bias=True)
)>
<bound method MLP.parameters of MLP(
  (fc1): Linear(in_features=2131, out_features=128, bias=True)
  (fc2): Linear(in_features=128, out_features=32, bias=True)
  (fc3): Linear(in_features=32, out_features=3, bias=True)
)>
Evaluating VCAP_t1_multi_net_4_forget_rate_0.1_stop_fuzzy_2_fuzzy_exp_3_seed_6...
[[1301   93   45]
 [2968  187  120]
 [ 827   72   37]]
f1_score 0.19
all test accs
[26.991150442477878, 31.575221238938052, 25.292035398230087, 41.52212389380531]
Epoch [1/25] Test Accuracy on the 5650 test images: Model1 26.9912 % F1 0.1888 Pure ratio 0.0000 % 
Training VCAP_t1_multi_net_4_forget_rate_0.1_stop_fuzzy_2_fuzzy_exp_3_seed_6...
…
